nav_agent_checkpoint.pth (torch_old, 20735 bytes, 8 tensors)

model_layers.0.weight f4 [64, 37]
00000000: cb08 953d a5ce adbd 139e 53bb dffc 8cbd
00000010: 6f0a 6bbe c8b0 b53d 69a0 893d 1d0f 1d3d
00000020: f916 e33b 38e3 debd f228 b7bd d0c6 d73c
00000030: 772b a13d d56c a83d 9f3a 083d fb4f 27be
00000040: 19ad ab3d 50ca a9bc a8ac 67bd 7179 683e
00000050: cb06 aebd 3622 d0bd d5fd 193c ac91 a1bd
00000060: 3e52 903d 02ad 36bd d4d4 06bd 5e11 f83c
00000070: 6968 88bc 6395 823d 7bbf 18be 13e8 a2bc
00000080: 0721 123d 00b8 ddbd de4b 5f3c 6a25 9c3d
00000090: 9145 17be 1874 943d ac21 023e 40ff 4a3e
000000a0: 259c e4bc cfa7 093e 528f 373e 7fdd 6e3c
000000b0: 779f 813d a50b ee3d 778e 183e 661e d73d
000000c0: 0f0e d63d 39ab 363e 9fb2 9fbd 7bdd 1bbd
000000d0: 2b35 0e3e 9b9f 27bc f606 dd3c fcdf 02bd
000000e0: 17ad 673b a57e f13d 5cfa 6e3e 3a7e 293e
000000f0: 1d1d f13d 7531 3abe 4ae5 073d e187 253e
00000100: 7dfe 403d 6a1e c23d a1e3 bebd b521 4ebd
00000110: 1cbc 433e 99d4 7f3d b5be fb3d 8e28 d83d
00000120: ddb4 47be ffcb f3bd ac53 a0bd 34da 93bd
00000130: e601 653d dfe5 a1be f5e4 3fbe 49fb d4bd
00000140: bf01 8cbe 7851 503e 9f6f 4ebe 9bb1 c7be
00000150: 5944 123e ba76 29be 6934 e33d 228a 39bd
00000160: 557f 45be 6d42 d7bd 4ca8 2ebe dbbe ba3d
00000170: 5625 bdbc 7223 eabe 9d7c dd3d bf63 14bd
00000180: f441 3a3e cf5f 4dbd 765c 4ebe 6903 e3bd
00000190: 70c2 82bd 84b2 c53d f0e5 06bf b93b 3dbe
000001a0: 8aec 68be 8e5f 6abe c0bd 173e 389a aabe
000001b0: e7d1 24bf c160 bfbd d227 dd3c 8e2a bf3d
000001c0: 4dcf 1d3e 8acf 0b3e b46a 3b3e db3e 0e3e
000001d0: 6e94 543e bfa5 af3d 745a 3ebe 3e02 043d
000001e0: 84fb 9abe 59c7 8d3d e466 84bc 41f9 c43d
000001f0: 2e6b 3b3e 1bfc 62bd a249 a5bc 9f0f fd3c
00000200: 695f 03bd cdf4 973d 6891 2bbe 5189 ccbb
00000210: 30c7 abbd 6be8 743d e984 223d 5ce9 633e
00000220: 9cb4 543e 4507 1c3e e45a bfbc 075a cbbd
00000230: e906 96be ba1b c13d d0e3 a9bc fe64 aa3d
00000240: b3ed 223e 48dd 3c3e 83cd 7fbd 58d6 e73d
00000250: a409 793d 2bb8 853d dce2 bfbd 164c 4b3e
00000260: 4a11 843d 3e56 7d3e 43ee 7e3e d1d3 823d
00000270: 19e4 683d 66b9 abbe 7642 daba 377a 7d3d
00000280: 949f 053e 023f 0bbd d493 be3d 7c4d fd3d
00000290: e40d 9bbd b48b 61bd 57d1 293e 1414 5f3e
000002a0: 844f 913d 3926 113e 9a86 343e b1be 5b3d
000002b0: e2c8 073e d814 7b3e 2c65 96bb 4c84 373d
000002c0: 9a74 953e c49a 973e 7ea9 c53d ad5b ba3d
000002d0: eb57 12bd 8167 dfbd 0d30 ad3c f12d 193e
000002e0: 2af1 d13d ecdd 71be 5d95 2f3e 9308 253e
000002f0: ddf3 00be 05ee 85be 1e46 283d cc21 38be
00000300: 786c 53be f3bd 0ebd a830 ac3e 175f 5d3d
00000310: fbe2 9ebc c836 38bd f490 ae3d 54f0 3b3d
00000320: a307 a5be 9776 293e 9c99 d83d 5465 e4bb
00000330: caca 6cbe 8f14 48bd 393c 913d be7b 9e3c
00000340: 6210 a7bd 33f7 353e 17bc 9abd 822e 223d
00000350: 90ee 2abd 83fe 563b 422a ee3b a96b e9bc
00000360: 09c4 35be b14f 5bbe a3da 963c 5bed bd3d
00000370: d9a9 9aba 7803 783d da2b 233e 64f3 a13d
00000380: 06e8 3b3d e538 0e3e b404 9abd a6fb dc3d
00000390: 108f c5bd 9d19 683e 3e8a 19be 7da5 05bf
000003a0: e6ec 993d 66ff b03d 2bb7 213e 30e4 b13d
000003b0: f4d5 e13d d4e0 ed3d b8df 443e eae2 0b3e
000003c0: c2ea 1a3e bf84 8fbd 0fa4 baba 7702 dbbd
000003d0: a161 83bd 3914 a83d abae bf3d 25df 343e
000003e0: a442 893d b9fd 993d 0d3c 9f3d 7c95 80bc
000003f0: 538e fc3c 9426 f4bc b4f9 e8bc 611c 2d3e
0.07277068 -0.0848668 -0.0032290264 -0.06884169 -0.22953199 0.08871609 0.06720049 0.03834449
0.006930229 -0.10883182 -0.089433566 0.026339918 0.078696184 0.08223883 0.03325903 -0.16339104
0.08382625 -0.020726353 -0.056561142 0.22702576 -0.084973894 -0.10162775 0.009398897 -0.07889113
0.070469365 -0.044598587 -0.032917812 0.030281719 -0.01665135 0.063761495 -0.14916794 -0.019886052
0.03567603 -0.10826111 0.013628928 0.07624324 -0.14772631 0.072487056 0.12708157 0.19823933
-0.027906487 0.1344292 0.17925766 0.014579176 0.06329244 0.11623315 0.14898096 0.10503845
0.104519 0.17838754 -0.07797741 -0.038053017 0.1388747 -0.010230924 0.026980858 -0.03195189
0.0035350972 0.11791734 0.23337692 0.16552058 0.11773131 -0.18182929 0.03317765 0.16165115
0.0471177 0.09478457 -0.093207605 -0.050325114 0.19114727 0.06245861 0.12292234 0.1055461
-0.19502588 -0.119041435 -0.07828459 -0.07219353 0.055910014 -0.3162069 -0.18739684 -0.10399491
-0.27345082 0.20343578 -0.20159768 -0.3900269 0.14283885 -0.16549197 0.11093981 -0.04529775
-0.19286855 -0.105107166 -0.17056388 0.09118434 -0.023089092 -0.45730168 0.10814784 -0.036227938
0.18189222 -0.0501402 -0.20152459 -0.11084635 -0.06384742 0.0965319 -0.52694607 -0.18479814
-0.22746482 -0.22888014 0.14818478 -0.33320785 -0.64382786 -0.09344626 0.026996527 0.093342885
0.1541111 0.13653389 0.18302423 0.13891165 0.20759746 0.085765354 -0.18589193 0.0322287
-0.30270016 0.06922788 -0.016162343 0.09617854 0.18302605 -0.055416208 -0.020176712 0.030891238
-0.032073412 0.07419739 -0.16754687 -0.0062419553 -0.083876014 0.059791964 0.039677534 0.22256988
0.20772022 0.15237148 -0.02335877 -0.09929281 -0.29302147 0.094291165 -0.020738512 0.08320044
0.15910988 0.18443787 -0.06245185 0.1132018 0.06080021 0.06529268 -0.09369442 0.19853243
0.0644861 0.2473993 0.24895577 0.06388057 0.056858156 -0.33539885 -0.0016651887 0.06188413
0.13049155 -0.033995636 0.0930554 0.123682946 -0.07571009 -0.055064872 0.16583763 0.21785003
0.070952445 0.14174737 0.17629471 0.053648654 0.13260224 0.2451967 -0.0045896973 0.044803903
0.29190522 0.29610264 0.09651469 0.09099517 -0.035728376 -0.10908414 0.021141076 0.14958932
0.102510765 -0.23619813 0.17146821 0.16116552 -0.12593026 -0.26158157 0.041082494 -0.17981642
-0.20646846 -0.03484912 0.33630872 0.054045763 -0.019395342 -0.04497412 0.08523741 0.04588349
-0.3223239 0.16549145 0.10576174 -0.006970087 -0.23124233 -0.04884773 0.07091565 0.019346114
-0.08157422 0.1777008 -0.075554065 0.039595135 -0.041731417 0.003280551 0.007268221 -0.02849372
-0.17750563 -0.21417119 0.018414801 0.092737876 -0.0011799886 0.060550183 0.15934697 0.07907751
0.04587557 0.13888891 -0.07520428 0.10790186 -0.09646428 0.2266602 -0.14994141 -0.5220564
0.07515888 0.086424634 0.1579253 0.086861014 0.110271364 0.11615148 0.19225967 0.1366078
0.15128615 -0.07007741 -0.0014239567 -0.106938295 -0.064151056 0.08206982 0.09359487 0.17663248
0.06702164 0.07519097 0.07775126 -0.01569628 0.030829584 -0.029803552 -0.02843938 0.16905357

model_layers.0.bias f4 [64]
00000000: 091c 203e 65cd 0c3e 510f cc3c bb11 dabd
00000010: 127f 953e 8b7a 873d e81e 0c3e 6699 823d
00000020: fe5c 24bc cca1 b63c 1462 d2bd 080c 8f3e
00000030: a265 a93e 19e9 063e cfd1 763d 8151 403e
00000040: 4aa4 b73d ef62 2a3e 071d 2b3e 418a a4bd
00000050: 857d 7d3d 2e36 df3d 7149 48be 413f 71bd
00000060: 0e7c 103e c038 913d 234a 373e 0256 493e
00000070: 13ed 60bd 5d7e 503e eb69 503d ec53 873e
00000080: 385d 253d fb85 c93d 724f bb3d 790e 653e
00000090: 9dd6 c7bc 1f2b 4a3e cf65 4d3e 1312 d2bb
000000a0: ed94 a63d 6c26 233c 7ed6 233e 093c 1c3e
000000b0: 8ba1 29bd 25af 1b3d f341 ae3c d3d2 983b
000000c0: 9ccc 153e ad14 2bbd 7512 913d a973 23be
000000d0: 5ef7 1a3e 2545 933d e771 37be 082c 963c
000000e0: 1a3e 1b3e a99c 1dbe c55b 293e 7f0c 36bd
000000f0: c24c 33be 7374 99bd e048 903d bc66 1f3d
0.15635695 0.13750227 0.024909647 -0.10647913 0.2919851 0.0661517 0.13683665 0.06376915
-0.010031937 0.022293948 -0.10272613 0.27938867 0.33085352 0.13174857 0.060258683 0.18781091
0.089668825 0.16639303 0.16710292 -0.08034182 0.061887283 0.10899006 -0.19559266 -0.058898214
0.14109823 0.07090902 0.17899375 0.19661716 -0.05491359 0.20360704 0.05088226 0.26431215
0.040372103 0.09840008 0.09146012 0.22368802 -0.024394328 0.19743012 0.20058368 -0.006410846
0.08133874 0.009957891 0.15999791 0.15257277 -0.041413825 0.038008828 0.021271681 0.004663804
0.14628834 -0.041767765 0.070835985 -0.1596209 0.15133426 0.07190923 -0.17914544 0.018331543
0.15160409 -0.15391792 0.16538914 -0.04444551 -0.1750975 -0.07492914 0.0704515 0.038916335

model_layers.2.weight f4 [32, 64]
00000000: 6d5f bfbd ac76 ce3d 0281 92bd f4c4 f7bd
00000010: 8547 103d 46c4 c0ba 0425 fdbd a42a 783d
00000020: ada9 2a3e 6586 a3bd 79ad bebe 4122 0f3e
00000030: c9db 143e c15c 45bb 7794 b83d e02f 103d
00000040: fb6d acbd b664 a33a a9be bc3b b96e d43c
00000050: 6fb0 48bd f1ac 273e ff91 e5bd 6d73 e53d
00000060: 25bd b8be 1e14 0b3e b296 8f3d 3638 893d
00000070: 3a5d 1a3d 1617 073e 051a ee3d d061 d93d
00000080: 4373 943d 19c5 2dbb 2d13 2ebe c3fc 573b
00000090: 51d1 a43e 5f57 f33c 7a37 ad3d 73cd 313e
000000a0: d3aa 7a3d 958b febd 0b6d 4e3d d3ac a73d
000000b0: dfd1 553e 19a7 dc3d 65bf daba 4958 1a3d
000000c0: b30e 463d 722d 66bd 7ff4 7d3d 38a4 a93d
000000d0: 0d71 973d 9d82 983e 6e9e c83c f531 17be
000000e0: 7f02 0a3c 6664 953b 0f33 443e 0c60 ea3c
000000f0: 7810 4dbe d422 6cbd d07b 88bd 5c23 99bc
00000100: 8848 02bf 9ee8 b23b 048c ea3e 45d8 023d
00000110: e436 cc3d f0cd f43c 47a5 d0bd 2b6a bfbd
00000120: 5a25 5a3d 4583 c13d c6f5 49be de57 b0bc
00000130: 7b0b 6dbd 7071 b4bd 97fb abbd ad47 7cbd
00000140: 2591 aa3d f0ee 42bd ea9f 00bc c7fd 6ebe
00000150: fb34 1c3c a106 823d 504b dbbb 228a 76bc
00000160: 22d9 a9bc 36ac 403d 076f a3bc 489a 953d
00000170: e887 cfbc 1bed 303d 4ca8 a7bd 8120 463d
00000180: 23e0 b8be 68dd 6d3c 22b0 17bd b2b7 92bd
00000190: 05fc 12be 8f74 bcbd 114d 843d e649 94be
000001a0: bf04 ab3d 227d 06bd e26e 1a3d 1160 aabe
000001b0: 921b 80be 7ee8 cc3d c7ba e9bd 386f 4fbe
000001c0: 87c7 10be 5325 993d 42f4 8d3d 3d49 993d
000001d0: afd8 5a3e 6cf2 bcbd 273b 71bd 0782 2d3c
000001e0: fb2c 92bc 8c28 ee3d 0b34 223b 5cef 5abc
000001f0: c97e 263d 13e3 8bbe 2d33 89bc 5284 103e
00000200: 54e3 51bd a9ae 4e3d 2fee 023b 4bdd b73d
00000210: 5577 1c3e 7991 ef3d edd5 bf3d 38b1 e23d
00000220: f679 673e 1b0e 91be 99cc bcbe d105 693e
00000230: bbe7 00bd 37d1 0b3e 25d5 0d3e 6c57 28bd
00000240: e5c1 153e 5be8 3b3e b2d7 adbc de4f 8dbd
00000250: 35ba 1fbd 7e36 453e b2ee 49bd 8e40 03be
00000260: bf41 e8be a483 3bbd 6f0d 263e 1550 033e
00000270: 6be3 0fbe 54f1 d13d 264a a13e 5d66 5c3d
00000280: 3a13 853e 741c 12bd a077 8ebd 8638 093e
00000290: e090 503e af4b 3a3d 88c7 a93d c7b0 c63d
000002a0: 08ec 2f3e 48c6 4abd 09fa c73d ad86 213e
000002b0: 7b1a 893e b197 f83c 5ab0 7b3e fc15 823d
000002c0: 67b8 cd3d 0413 9fbd d21c 173e 85bd 053d
000002d0: 1500 c93c 0c72 913e 9b1d a5bc 68d8 f7be
000002e0: 564a f5bd 8291 213e 9514 373e 025f 953d
000002f0: 2954 a1bd b102 9fbc ba62 c1bd f78e 0e3e
00000300: 558c a13c 3e74 9a3d f6f3 1cbe a0a2 cfbc
00000310: 9e01 e03d 85b9 563c 5728 133b 97b1 733d
00000320: 3f2d ce3d 0f13 793d 8cd3 09bf 48fb 9bbd
00000330: fada f33d a4e7 93bd 522a 37bc 7244 00bd
00000340: 51b4 1f3d db3c 553c 2c29 333e c0e1 01be
00000350: e11f bc3c b1ee 8c3d 7bbd 9f3d 4119 573d
00000360: 3378 b4be eaad 03be 7429 bf3b 9f5e ca3d
00000370: b7b8 0c3d f5c5 55bd 6384 b53d 0f48 10bd
00000380: 108c 953e 5b99 e93d 1bf2 07bf db53 cebd
00000390: affb 61be e7ed d4bd 056d e3bb 2905 943d
000003a0: 55b0 8d3d 00a0 fc3d 2974 c0bd 4e25 3a3d
000003b0: c322 a8bc 2adb e6bd eee4 41bd c6cc 443d
000003c0: f1e9 20bd c1b8 4dbd d7bf 17bd 3592 f9bd
000003d0: 4768 2dbd 2cb2 993d 11c4 c43d 24ac 19be
000003e0: 8e57 0e3d c0f9 f33d 38f4 4e3d b93f 1e3e
000003f0: d365 f8bc 064b 0ebe e9c8 e33e 741c 03be
-0.09344373 0.100812286 -0.071535125 -0.12098113 0.035224456 -0.0014706932 -0.12360576 0.06058754
0.16666289 -0.07984618 -0.37241724 0.1397791 0.14536966 -0.00301151 0.090126924 0.035201907
-0.084194146 0.0012465927 0.005760033 0.025931703 -0.048996385 0.16374566 -0.11209487 0.11203656
-0.36081806 0.13581893 0.07011165 0.067001745 0.037686564 0.131924 0.116260566 0.106143594
0.07248547 -0.0026515184 -0.16999502 0.0032957054 0.32190946 0.029704748 0.08457847 0.17363529
0.061198067 -0.12428967 0.05039696 0.081872605 0.2088084 0.10774059 -0.001668912 0.03768185
0.048353862 -0.056195684 0.062000748 0.08283275 0.073946096 0.2978715 0.024489608 -0.14765151
0.008423447 0.0045590876 0.19160102 0.028610252 -0.20025814 -0.057650402 -0.0666424 -0.018693618
-0.50891924 0.005459859 0.45809948 0.031944532 0.09971407 0.029883355 -0.10187774 -0.09346422
0.053258277 0.09448866 -0.19722661 -0.021526273 -0.057872277 -0.08810699 -0.08397596 -0.061591793
0.08328465 -0.04759115 -0.0078506265 -0.23338996 0.009534116 0.063489206 -0.0066923276 -0.015047582
-0.02073342 0.047039233 -0.019950403 0.073048174 -0.02533336 0.04319487 -0.08186397 0.048370842
-0.36108503 0.014518119 -0.037033208 -0.07163943 -0.1435395 -0.09201919 0.06460012 -0.2896263
0.083505146 -0.03283418 0.037703402 -0.33276418 -0.25021034 0.10005282 -0.11412578 -0.2025727
-0.14138614 0.07477822 0.06931354 0.07484672 0.2137172 -0.09225926 -0.058894303 0.010590083
-0.017843714 0.116288275 0.0024750258 -0.013362732 0.040648255 -0.2732168 -0.016748035 0.14112976
-0.051242188 0.050459538 0.0019978394 0.08977755 0.15279897 0.116976686 0.09366975 0.11068958
0.22605118 -0.28331074 -0.36874846 0.22756125 -0.031470995 0.13654028 0.1385084 -0.041098997
0.14624746 0.18350355 -0.021221016 -0.06899999 -0.03899594 0.19259068 -0.049299903 -0.12817594
-0.4536266 -0.04577984 0.16216062 0.12823518 -0.14051597 0.10251108 0.31501883 0.05380856
0.2599123 -0.035671666 -0.069564104 0.13400468 0.20367765 0.045482334 0.08290011 0.09701686
0.17179883 -0.049505502 0.09764487 0.15774031 0.26778015 0.03034577 0.24578992 0.063518494
0.100449376 -0.07767299 0.14757088 0.032651443 0.024536172 0.28407323 -0.020155719 -0.48407292
-0.11977069 0.15778163 0.17878945 0.07293512 -0.078773804 -0.019410463 -0.09442659 0.13921724
0.019720236 0.07541703 -0.15327439 -0.0253461 0.109378085 0.013105755 0.0022454464 0.059495535
0.10067224 0.06080919 -0.5383842 -0.076162875 0.11907001 -0.07221916 -0.011179524 -0.031315275
0.038990323 0.013014997 0.17496175 -0.12683773 0.02296442 0.06881464 0.077998124 0.05251432
-0.35247955 -0.12859312 0.005833799 0.09881329 0.034355845 -0.05219074 0.088631414 -0.03522497
0.29208422 0.11406203 -0.531038 -0.10074588 -0.22068666 -0.10396939 -0.0069404864 0.07227547
0.06918398 0.12335205 -0.09397156 0.045445733 -0.020524388 -0.11272271 -0.047337465 0.04804685
-0.039285604 -0.050225023 -0.037048187 -0.1218609 -0.042335775 0.07504687 0.09607709 -0.15007073
0.034751467 0.119128704 0.050525874 0.15453996 -0.030321991 -0.13895807 0.4448922 -0.12803823

model_layers.2.bias f4 [32]
00000000: 0cea c83d e8b1 07bd 9192 f03d 70db 08bc
00000010: edce cebd 34e1 e63c 231f 173e df94 48bd
00000020: 0d10 453d a25e 16bc 693a 3c3d 2d69 753e
00000030: d27e d5bd 643f 5a3d a16b 533b e910 27bc
00000040: c693 be3d 2aca 0bbe 2cf0 4f3d 1477 623c
00000050: 1b45 333e 7a2d 103e 9395 0b3e 157f aabd
00000060: 5ca4 d23d 69da 013e f848 cfbb 3d7a 253c
00000070: e31c 653d d3d6 23bd 0f0e ea3d ed79 a63d
0.09810266 -0.03312865 0.11746705 -0.008353099 -0.10098062 0.028183557 0.14757971 -0.0489701
0.04811101 -0.009177836 0.04595414 0.23965903 -0.1042458 0.05328311 0.0032260197 -0.010196903
0.09305529 -0.13651338 0.050766155 0.013822336 0.1750683 0.14079848 0.13631277 -0.0832502
0.10285255 0.12680973 -0.006325837 0.010099945 0.05593575 -0.039999794 0.11428463 0.08128724

model_layers.4.weight f4 [8, 32]
00000000: 48ac 1f3d e377 5fbd 3e17 28be da78 023e
00000010: 3aab 08be 625d 35bd b959 68bc cb7b 30be
00000020: ffb7 c43d 007d 7a3c b923 d4bd e646 10be
00000030: 2b55 c13c 9076 71bd 998c 7c3d a95f 083e
00000040: 8fb5 273d dadc 213e 0214 ffbd 29c3 133e
00000050: 2e0c e3bd 09b1 de3d 7e92 41bc 91b0 9fba
00000060: 2ce4 123e 2ef8 183e 259d 40bd 3ba9 e9bc
00000070: 6769 21bb 1b95 233e 4bee 3bbd 1ee0 183e
00000080: 3dae 123d d765 a03d eff0 283e c9fe 793c
00000090: 60a9 adbe 7461 3abe 5f67 32be 1212 ae3d
000000a0: 2b68 61bd c8eb 363c 5a03 013e aa7c 95bd
000000b0: f8c0 f13d f4d2 063d 3a9d 3cbe 4a53 f3be
000000c0: e3b5 2dbe e707 c33e 2eb4 dabd 9891 6d3e
000000d0: 62db 113e 7187 0d3e e906 9dbd 9714 30be
000000e0: 7652 9d3d 2721 1f3e 5fb4 47be 3396 bbbe
000000f0: 7a53 263e e981 27be 42c9 66be d393 403e
00000100: d71b fc3d d93e 82bd 914d b8bd e94a a2bd
00000110: 00b3 c23a c5b4 dcbd 8436 b0bd 607f 47bc
00000120: 8bfb fcbd c7fe 1cbe d829 1dbe 1cc3 18be
00000130: 7e4c fc3d e5ff 0ebe 1fb7 69bd 5cac e33d
00000140: f2fd 70bd 7c14 73bd 8e68 bdbd 30a2 523d
00000150: 2b9e febc 1104 c93c dce0 1dbe 9d74 e23d
00000160: 1e79 af3d 5d65 c13d b0e1 3bbd ee51 0bbe
00000170: e2df babc 495f 1f3e 2e10 203d 20f6 d13d
00000180: 79a9 23be b375 70bd 8d6f c0bd c5f8 ec3b
00000190: f1a5 db3d 85ed 39be 4c2e 8abd 4d7a 9a3b
000001a0: 0466 f53d 9d8f 6fbd bd68 363d ec4f 9e3b
000001b0: 8654 48be bbd6 1dbe 060a 143e e385 203e
000001c0: 1329 14bd ae3f 163e 543f 253d 6e50 173e
000001d0: 70ff dfbd a6f2 2cb9 12db 7d3c b3f5 b2bc
000001e0: 32c4 e5bd ba8a cdbd db6e 973d bba6 ce3d
000001f0: 2c7a 2fbe a749 923c d945 1d3d 96bb d43d
00000200: 49cd 1d3e abd4 92be bc5a 633e af42 11be
00000210: 43ab 67be 18d2 2a3e f15a 873e ecb9 86be
00000220: 0870 babe 6bd8 b53e f82a 603e 9ad7 873e
00000230: 1009 54be ad6a 50bd d66f 2fbd 3b21 68be
00000240: 6842 fabe da6d 70be 413f 9d3e a676 bdbd
00000250: 33a0 443e cbaa 563e 7065 763e 622b 313d
00000260: 95a2 703e 22b7 2d3e adbf 393e 9fdc 00be
00000270: 958b a53e 83ee cebe 53a5 6a3e 18b6 883e
00000280: d308 e9bc c275 283e 8bbe dc3d e8d9 513d
00000290: 1d1f 2d3e 688b 26bd 6897 66be d8f4 60be
000002a0: cf43 8d3d 469b 6abe d5cb 8bbc c289 243d
000002b0: ef66 20be d60a 893e 9b2d 83be 1d58 eabe
000002c0: 3593 b6be 9737 72bd de87 1d3e cd2d 87be
000002d0: 63bb 393e dabe a3bd 6639 18be b580 b43e
000002e0: c24f 633e 8e49 55bd aa98 ae3d fe43 c53d
000002f0: 14e9 8139 d3f1 1dbe e430 da3d 395e e6bd
00000300: f343 2ebe f497 10bd a42a 38be 2796 14bf
00000310: 2d12 61be 7f66 463e f74f be3d 75eb 9cbe
00000320: 5175 e9bd d376 26bd 4799 1bbb 9de0 f23b
00000330: c0b8 2d3e 12d1 7cbe 47a5 98be 388b 97be
00000340: a8bf 9cbe 0426 a33c f763 eebd 3125 553e
00000350: 7d13 d5bc 13d9 023e bc3d 9dbc 5957 14bf
00000360: 2b62 6c3e bf28 15bd 73ec 2a3e 8750 1e3e
00000370: 80d9 0f3d 14e5 efbc e378 303e 82b6 55bd
00000380: 4ec5 52be 0148 ba3c 562b 44bd cf12 a9bd
00000390: 2cd0 803e 6a15 e33d de28 c83d 0e0c c13d
000003a0: 3266 09bc f9e8 46bd 4cbc a83d 7ae0 2e3b
000003b0: 8b9d 1fbe 1490 48be f861 96bd d101 e7be
000003c0: 4d17 e9be 7fec d7bd ac2c c63c 3f66 573c
000003d0: 937e 27bd ccfd 98bc 6571 cd3c 5e66 8d3e
000003e0: 858c 083e d4d9 2c3d 1cb5 503d 575a 883e
000003f0: 2061 4f3d c35b 3c3b 8ef8 87ba 2425 4ebe
0.03898266 -0.054557692 -0.16415116 0.12741414 -0.13346568 -0.04427851 -0.014181548 -0.17234723
0.09605407 0.015288591 -0.10358376 -0.14089546 0.023600182 -0.05895096 0.061657522 0.13317741
0.040944632 0.15806904 -0.12454988 0.14429916 -0.110863075 0.108736105 -0.011814712 -0.0012183358
0.14344853 0.14938423 -0.047024865 -0.028523078 -0.0024629475 0.15974848 -0.04588155 0.14929244
0.035810698 0.078319244 0.16498159 0.015258499 -0.33918285 -0.18201238 -0.17422245 0.084995404
-0.055030983 0.011164613 0.12598935 -0.072991684 0.11804384 0.032916024 -0.18419352 -0.47524482
-0.16963916 0.38091967 -0.10678898 0.23200071 0.14243844 0.13821198 -0.07667334 -0.17195354
0.07681744 0.1553999 -0.195024 -0.3663803 0.16242781 -0.1635815 -0.22537711 0.1880639
0.123099975 -0.063596435 -0.089991696 -0.07924444 0.0014854372 -0.107766666 -0.08604148 -0.012176365
-0.123526655 -0.15331565 -0.15347993 -0.14918178 0.12319277 -0.13964804 -0.057059404 0.11116859
-0.05883593 -0.059345707 -0.09248458 0.051424205 -0.03108128 0.024538072 -0.15417808 0.110573985
0.08568023 0.09443162 -0.04586953 -0.13605472 -0.022811834 0.15563692 0.03907793 0.10252023
-0.15982617 -0.058705997 -0.093962766 0.007231804 0.1072501 -0.18157013 -0.06747112 0.0047142864
0.119823486 -0.05848657 0.04453348 0.004831305 -0.19563493 -0.15413944 0.14456949 0.15676074
-0.036171984 0.1467273 0.040343598 0.14776775 -0.10937393 -0.00016493592 0.015494125 -0.021845674
-0.11219062 -0.100362256 0.07394191 0.10090395 -0.17136449 0.017857386 0.03839669 0.10387342
0.15410341 -0.28677878 0.22202581 -0.14185594 -0.22623925 0.16681707 0.2643657 -0.26313722
-0.36413598 0.35516676 0.21891391 0.26531678 -0.20706582 -0.050882984 -0.042831264 -0.22668926
-0.4887879 -0.23479405 0.3071232 -0.09251146 0.19201736 0.2096359 0.24062133 0.043254264
0.2349952 0.16964391 0.18139525 -0.1258416 0.32333055 -0.40416345 0.22914629 0.26701427
-0.02844659 0.16451171 0.10778531 0.051233202 0.169064 -0.040660292 -0.22518694 -0.219684
0.06897699 -0.22910795 -0.017064968 0.04017044 -0.15664266 0.2676608 -0.25620732 -0.4577035
-0.35659185 -0.059135046 0.1538386 -0.2640213 0.18137889 -0.079953864 -0.14865646 0.35254446
0.22198394 -0.0520721 0.08525212 0.09632109 0.00024778454 -0.1542428 0.106538564 -0.1124844
-0.17018108 -0.035301164 -0.17985016 -0.58041614 -0.2197959 0.19375037 0.09292596 -0.3064839
-0.113993295 -0.040640663 -0.0023742483 0.00741203 0.16965008 -0.24689129 -0.29813597 -0.29598403
-0.30614972 0.019915588 -0.116401605 0.20814969 -0.02601027 0.1277812 -0.019194476 -0.5794578
0.23084323 -0.03641581 0.1669176 0.15460406 0.035119534 -0.029284038 0.17233615 -0.052176006
-0.20583078 0.022739412 -0.04789289 -0.082555406 0.25158823 0.11088069 0.0977342 0.094261274
-0.008386182 -0.048562024 0.0823904 0.0026684091 -0.15587442 -0.19586211 -0.07342905 -0.45118573
-0.4552559 -0.10543155 0.024191223 0.013146936 -0.040892195 -0.018675707 0.025078485 0.27617162
0.13334854 0.042199925 0.05095397 0.26631424 0.050629735 0.0028741218 -0.0010373758 -0.20131356

model_layers.4.bias f4 [8]
00000000: 8a3e f9bd bcea 95bd c3b9 5fbd 2abd b6bd
00000010: ed2b a63e cd76 8bbd 8c94 a43d 0595 6ebd
-0.121701315 -0.07320163 -0.054620516 -0.08922799 0.32455388 -0.06809769 0.080361456 -0.058247585

model_layers.6.weight f4 [4, 8]
00000000: 6b50 963e 4814 163f a4d6 bb3d b1d3 bdba
00000010: 6dcf c53e 39d6 de3e 7614 bd3e 7a44 0d3f
00000020: 6361 f7bc b57f 013f a131 9e3e e150 63be
00000030: 46bc bd3e 02c7 a63e c15d 0b3f 4d47 eb3e
00000040: 2292 8dbe 5f27 533f 6c5c ffbd 1eda 7ebe
00000050: f322 c43e e9e1 04be 7be1 183e 1873 d13e
00000060: 2487 9abe 003b b53d 2f3a a23e c2d7 0fbc
00000070: 51d5 ba3e 99b9 80be 4f6f 363f 850f 023f
0.2935823 0.58624697 0.09171799 -0.0014482645 0.38634816 0.43522814 0.36929673 0.5518261
-0.030197805 0.5058549 0.3089724 -0.22198822 0.37057704 0.32573706 0.5443993 0.45952836
-0.27650553 0.8248195 -0.124688 -0.24887893 0.38307914 -0.12976803 0.14929764 0.40908122
-0.3018123 0.08849144 0.31685016 -0.008779468 0.36490873 -0.251416 0.71263593 0.5080493

model_layers.6.bias f4 [4]
00000000: a58b c5bd 3a0f ecbc 1f3e 96bd 0417 813d
-0.09645776 -0.028815854 -0.073360674 0.06303218
